Start training
V4_to_V1_times: 1
DataParallel(
  (module): CORnetSModel(
    (V1_conv1): Conv2d(3, 64, kernel_size=(7, 7), stride=(2, 2), padding=(3, 3), bias=False)
    (V1_norm1): BatchNorm2d(64, eps=1e-05, momentum=0.1, affine=True, track_running_stats=True)
    (V1_nonlin1): ReLU(inplace=True)
    (V1_pool): MaxPool2d(kernel_size=3, stride=2, padding=1, dilation=1, ceil_mode=False)
    (V1_conv2): Conv2d(64, 64, kernel_size=(3, 3), stride=(1, 1), padding=(1, 1), bias=False)
    (V1_norm2): BatchNorm2d(64, eps=1e-05, momentum=0.1, affine=True, track_running_stats=True)
    (V1_nonlin2): ReLU(inplace=True)
    (V1_output): Identity()
    (V2): CORblock_S(
      (conv_input): Conv2d(64, 128, kernel_size=(1, 1), stride=(1, 1), bias=False)
      (skip): Conv2d(128, 128, kernel_size=(1, 1), stride=(2, 2), bias=False)
      (norm_skip): BatchNorm2d(128, eps=1e-05, momentum=0.1, affine=True, track_running_stats=True)
      (conv1): Conv2d(128, 512, kernel_size=(1, 1), stride=(1, 1), bias=False)
      (nonlin1): ReLU(inplace=True)
      (conv2): Conv2d(512, 512, kernel_size=(3, 3), stride=(2, 2), padding=(1, 1), bias=False)
      (nonlin2): ReLU(inplace=True)
      (conv3): Conv2d(512, 128, kernel_size=(1, 1), stride=(1, 1), bias=False)
      (nonlin3): ReLU(inplace=True)
      (output): Identity()
      (norm1_0): BatchNorm2d(512, eps=1e-05, momentum=0.1, affine=True, track_running_stats=True)
      (norm2_0): BatchNorm2d(512, eps=1e-05, momentum=0.1, affine=True, track_running_stats=True)
      (norm3_0): BatchNorm2d(128, eps=1e-05, momentum=0.1, affine=True, track_running_stats=True)
      (norm1_1): BatchNorm2d(512, eps=1e-05, momentum=0.1, affine=True, track_running_stats=True)
      (norm2_1): BatchNorm2d(512, eps=1e-05, momentum=0.1, affine=True, track_running_stats=True)
      (norm3_1): BatchNorm2d(128, eps=1e-05, momentum=0.1, affine=True, track_running_stats=True)
    )
    (V4): CORblock_S(
      (conv_input): Conv2d(128, 256, kernel_size=(1, 1), stride=(1, 1), bias=False)
      (skip): Conv2d(256, 256, kernel_size=(1, 1), stride=(2, 2), bias=False)
      (norm_skip): BatchNorm2d(256, eps=1e-05, momentum=0.1, affine=True, track_running_stats=True)
      (conv1): Conv2d(256, 1024, kernel_size=(1, 1), stride=(1, 1), bias=False)
      (nonlin1): ReLU(inplace=True)
      (conv2): Conv2d(1024, 1024, kernel_size=(3, 3), stride=(2, 2), padding=(1, 1), bias=False)
      (nonlin2): ReLU(inplace=True)
      (conv3): Conv2d(1024, 256, kernel_size=(1, 1), stride=(1, 1), bias=False)
      (nonlin3): ReLU(inplace=True)
      (output): Identity()
      (norm1_0): BatchNorm2d(1024, eps=1e-05, momentum=0.1, affine=True, track_running_stats=True)
      (norm2_0): BatchNorm2d(1024, eps=1e-05, momentum=0.1, affine=True, track_running_stats=True)
      (norm3_0): BatchNorm2d(256, eps=1e-05, momentum=0.1, affine=True, track_running_stats=True)
      (norm1_1): BatchNorm2d(1024, eps=1e-05, momentum=0.1, affine=True, track_running_stats=True)
      (norm2_1): BatchNorm2d(1024, eps=1e-05, momentum=0.1, affine=True, track_running_stats=True)
      (norm3_1): BatchNorm2d(256, eps=1e-05, momentum=0.1, affine=True, track_running_stats=True)
      (norm1_2): BatchNorm2d(1024, eps=1e-05, momentum=0.1, affine=True, track_running_stats=True)
      (norm2_2): BatchNorm2d(1024, eps=1e-05, momentum=0.1, affine=True, track_running_stats=True)
      (norm3_2): BatchNorm2d(256, eps=1e-05, momentum=0.1, affine=True, track_running_stats=True)
      (norm1_3): BatchNorm2d(1024, eps=1e-05, momentum=0.1, affine=True, track_running_stats=True)
      (norm2_3): BatchNorm2d(1024, eps=1e-05, momentum=0.1, affine=True, track_running_stats=True)
      (norm3_3): BatchNorm2d(256, eps=1e-05, momentum=0.1, affine=True, track_running_stats=True)
    )
    (IT): CORblock_S(
      (conv_input): Conv2d(256, 512, kernel_size=(1, 1), stride=(1, 1), bias=False)
      (skip): Conv2d(512, 512, kernel_size=(1, 1), stride=(2, 2), bias=False)
      (norm_skip): BatchNorm2d(512, eps=1e-05, momentum=0.1, affine=True, track_running_stats=True)
      (conv1): Conv2d(512, 2048, kernel_size=(1, 1), stride=(1, 1), bias=False)
      (nonlin1): ReLU(inplace=True)
      (conv2): Conv2d(2048, 2048, kernel_size=(3, 3), stride=(2, 2), padding=(1, 1), bias=False)
      (nonlin2): ReLU(inplace=True)
      (conv3): Conv2d(2048, 512, kernel_size=(1, 1), stride=(1, 1), bias=False)
      (nonlin3): ReLU(inplace=True)
      (output): Identity()
      (norm1_0): BatchNorm2d(2048, eps=1e-05, momentum=0.1, affine=True, track_running_stats=True)
      (norm2_0): BatchNorm2d(2048, eps=1e-05, momentum=0.1, affine=True, track_running_stats=True)
      (norm3_0): BatchNorm2d(512, eps=1e-05, momentum=0.1, affine=True, track_running_stats=True)
      (norm1_1): BatchNorm2d(2048, eps=1e-05, momentum=0.1, affine=True, track_running_stats=True)
      (norm2_1): BatchNorm2d(2048, eps=1e-05, momentum=0.1, affine=True, track_running_stats=True)
      (norm3_1): BatchNorm2d(512, eps=1e-05, momentum=0.1, affine=True, track_running_stats=True)
    )
    (decoder_avgpool): AdaptiveAvgPool2d(output_size=1)
    (decoder_flatten): Flatten()
    (decoder_linear): Linear(in_features=512, out_features=100, bias=True)
    (decoder_output): Identity()
    (V4_to_V1): Conv2d(256, 3, kernel_size=(1, 1), stride=(1, 1), padding=(1, 1), bias=False)
  )
)

train: {'loss': 4.862767219543457, 'top1': 0.0, 'top5': 0.0, 'learning_rate': 0.1, 'dur': 4.330019474029541, 'data_load_dur': nan}
val: {'loss': 942.5635258789063, 'top1': 0.01, 'top5': 0.05, 'dur': 0.07457267913818359}

train: {'loss': 4.532811164855957, 'top1': 0.0, 'top5': 0.1875, 'learning_rate': 0.1, 'dur': 0.2787203788757324, 'data_load_dur': 0.000453948974609375}
…
